Projects/temp/mistake01/model/sancho_512.png_color_image_encoder.pth (torch, 8449 bytes, 4 tensors)

encoder.0.weight f4 [16, 3, 3, 3]
0	0x3c815769	0.01578875
1	0x3d527c8c	0.05138831
2	0x3c0c6251	0.008568362
3	0x3cec329a	0.028832722
4	0x3e70727f	0.23481177
5	0x3e00682c	0.12539738
6	0x3e8b936b	0.27260908
7	0x3e5664fc	0.2093696
8	0x3d944b2b	0.072409
9	0x3e0f01cd	0.1396553
10	0x3e271a70	0.16318679
11	0x3e6d52fb	0.23176186
12	0x3d9f9603	0.07792284
13	0xbc99fc4a	-0.018797059
14	0x3dcdc4f9	0.10047335
15	0x3e86780e	0.2626347
16	0x3e90e723	0.28301343
17	0x3da55e2b	0.08074602
18	0x3d7b3b19	0.061335657
19	0x3db28ed2	0.08718647
20	0x3d09a166	0.033601187
21	0x3e1d1861	0.15341331
22	0x3c961fac	0.01832565
23	0x3d3bbcca	0.04583434
24	0x3d8e3db5	0.069453634
25	0x3d533a3b	0.051569205
26	0xbd909794	-0.07060161
27	0x3c1535f3	0.009107101
28	0x3e26f5a2	0.16304639
29	0x3d187017	0.037216272
30	0x3e50fdc3	0.20409302
31	0x3e6086c3	0.21926408
32	0xbcc57c43	-0.024107104
33	0x3e658fbc	0.22418112
34	0x3e8c9b49	0.27462223
35	0x3e2ee268	0.17078555
36	0xbd99fd71	-0.07519043
37	0x3e53271d	0.2062039
38	0xbcd374a9	-0.025812464
39	0x3e2f2f6f	0.17107938
40	0xbd51c127	-0.051209595
41	0x3da37631	0.079815276
42	0xbcaf8425	-0.021425316
43	0x3e1df71a	0.15426293
44	0x3db1457c	0.08655831
45	0x3e0b437b	0.1359996
46	0x3e3f3bc7	0.18675147
47	0xbdb3fdf7	-0.08788674
48	0x3d9f67cd	0.0778347
49	0xbd820bf4	-0.06349936
50	0x3d5ca233	0.053865623
51	0x3d05c0e8	0.032654673
52	0xbd4a709d	-0.049423803
53	0x3e12168e	0.14266416
54	0x3d615260	0.0550102
55	0x3d0ad4c4	0.033894315
56	0xbdfe3ae1	-0.12413574
57	0xbd925668	-0.07145387
58	0x3e038ea3	0.1284738
59	0x3e3fe433	0.18739395
60	0xbd4d2660	-0.050085425
61	0xbe1110e4	-0.141666
62	0xbb9cc960	-0.004784748
63	0xbd989773	-0.07450762
64	0xbd7dc0f4	-0.061951593
65	0xbdbf1a29	-0.093311615
66	0x3d94b3ba	0.072608426
67	0xbdc3df45	-0.0956407
68	0xbe2fcc5c	-0.171678
69	0xbd963372	-0.07334031
70	0x3d80a8aa	0.0628217
71	0xbd06561c	-0.032796964
72	0xbdbf8197	-0.09350889
73	0xbcae1200	-0.021248817
74	0x3dc95782	0.09831144
75	0xbdb2a13f	-0.087221615
76	0xbcb63038	-0.02223979
77	0xbdd8ea86	-0.10591607
78	0x3de2a88a	0.110673025
79	0x3e23c357	0.15992485
80	0x3dc81c46	0.09771018
81	0xbd7c6202	-0.061616905
82	0x3dbd6733	0.09248199
83	0x3e7c6829	0.24649109
84	0x3e870ef7	0.26378605
85	0x3e5f73c4	0.21821505
86	0x3e97b133	0.2962738
87	0xbcd413fc	-0.025888436
88	0x3e7c2834	0.24624711
89	0x3dbecc31	0.0931629
90	0x3cdc5aa5	0.026898691
91	0xbde61f0d	-0.11236391
92	0x3ded13ae	0.11576019
93	0xbd7b5274	-0.06135793
94	0x3e37a634	0.17934495
95	0x3c686c00	0.014185905
96	0x3e5269d9	0.2054819
97	0x3e430dd6	0.19048247
98	0xbd05922d	-0.032610107
99	0xbdaeafa2	-0.08529593
100	0x3e27a497	0.1637138
101	0xbde72bdc	-0.112876624
102	0x3e18d674	0.14925557
103	0xbd0f5b99	-0.034999464
104	0x3e6e1e3e	0.23253724
105	0x3e3c46f5	0.18386443
106	0x3e0429e9	0.12906612
107	0xbe0ad8f7	-0.13559328
108	0x3de03c58	0.1094901
109	0x3e86e6bc	0.2634791
110	0x3e6f8e54	0.23394138
111	0x3e85eba2	0.26156336
112	0x3e5fb043	0.21844582
113	0x3db322f2	0.087469
114	0xbc2735d2	-0.010205703
115	0x3e54f5e8	0.20796931
116	0x3dc12c0b	0.09432229
117	0x3e75c8e8	0.24002421
118	0x3e12fc73	0.14354114
119	0x3e230cb8	0.1592282
120	0xbd502646	-0.05081775
121	0x3e85e281	0.2614937
122	0x3e77b89b	0.24191515
123	0x3dc352cf	0.09537279
124	0xbc69ef5d	-0.01427826
125	0x3d04e9b3	0.032449435
126	0xbd494080	-0.049133778
127	0x3e568329	0.20948471
128	0x3e8d869f	0.2764177
129	0xbc81e1d9	-0.015854763
130	0x3dfc5d98	0.12322539
131	0x3d111b29	0.035426293
132	0xbe1e6f05	-0.15472038
133	0xbdeb13b3	-0.11478367
134	0x3d81a31b	0.06329938
135	0xbe28c70d	-0.16482182
136	0xbcc0e084	-0.023544557
137	0x3df0be7c	0.11755082
138	0xbc90e1b3	-0.017685747
139	0xbd79a8d6	-0.06095203
140	0x3db40a1a	0.08790989
141	0x3e228370	0.15870452
142	0x3d4c7acb	0.049921792
143	0xbd0e01af	-0.034669574
144	0x3cd29cca	0.025709528
145	0x3e4faeff	0.202816
146	0x3dd1eb61	0.10249973
147	0x3dd36983	0.10322859
148	0xbe631e91	-0.22179629
149	0xbda95a50	-0.08269179
150	0x3d49129c	0.049090013
151	0xbe66c3fa	-0.22535697
152	0xbe4da739	-0.20083322
153	0x3cc68eed	0.024238074
154	0x3da32a71	0.079670794
155	0x3e860547	0.261759
156	0x3e32909b	0.17437975
157	0xbc6bbb66	-0.014387941
158	0x3c0dd7fc	0.008657452
159	0xbd779289	-0.06044248
160	0x3da0c10f	0.07849323
161	0xbdc83ea2	-0.09777571
162	0xbe15552f	-0.14583276
163	0xbe225465	-0.15852506
164	0xbdd65689	-0.10465724
165	0x3dd7d9d4	0.10539594
166	0xbdf48821	-0.11940027
167	0xbd04df98	-0.032439798
168	0x3dd836ee	0.10557352
169	0x3d233ad1	0.039851014
170	0xbd02bb17	-0.031916704
171	0xbe19c8a6	-0.15017948
172	0xbd913e4a	-0.07091959
173	0xbce98032	-0.028503511
174	0x3e0e5132	0.13898161
175	0x3d7315b4	0.05934687
176	0x3e00d50d	0.12581272
177	0xbc58b3a4	-0.013226423
178	0xbc160233	-0.009155798
179	0xbc1bb0da	-0.009502614
180	0xbdc18e15	-0.09450928
181	0xbe188192	-0.14893177
182	0x3e41dd57	0.1893209
183	0xbe2bacd6	-0.1676515
184	0xbd5d3e4e	-0.054014497
185	0x3d1a706b	0.037704866
186	0xbe2d8078	-0.16943538
187	0x3d1c0d9c	0.038098916
188	0xbd418c46	-0.047252916
189	0x3bf8867f	0.0075843926
190	0x3d5b2d27	0.053509858
191	0xbdbd7a28	-0.09251815
192	0x3ea7d682	0.32780844
193	0xbd0614a9	-0.032734547
194	0xbe83022f	-0.25587603
195	0x3e200d25	0.15630014
196	0xbb937260	-0.0044997185
197	0xbe2c84dc	-0.16847557
198	0x3eacfbe5	0.3378593
199	0x3e1f94dd	0.1558413
200	0x3dbe5bba	0.09294839
201	0x3eaff783	0.34368524
202	0x3d1e098f	0.038583335
203	0x3c9ce1c4	0.019150622
204	0x3e823f16	0.25438756
205	0xbe245c30	-0.16050792
206	0x3d256160	0.040376067
207	0x3e1a250e	0.15053198
208	0x3e01332c	0.12617177
209	0xbdd279c6	-0.10277133
210	0x3e79a5d1	0.2437966
211	0x3cf1115c	0.029427223
212	0xbc250e53	-0.010074216
213	0x3d9759dd	0.07390187
214	0xbe18ceeb	-0.14922683
215	0xbe84f26b	-0.259662
216	0xbdd5f659	-0.10447378
217	0x3d411287	0.04713681
218	0xbd88351f	-0.06650757
219	0x3e13fae1	0.14451171
220	0xbe208341	-0.1567507
221	0x3c19b349	0.009381124
222	0x3e04b5f8	0.1296004
223	0xbddacdd1	-0.106837876
224	0xbd267518	-0.040639013
225	0x3e3a3c2a	0.18187013
226	0x3c8c64e3	0.01713795
227	0x3e041d36	0.12901768
228	0x3d30ed8b	0.04319529
229	0x3a3bcaa0	0.00071636774
230	0x3d812f0e	0.06307803
231	0x3b16a181	0.0022984447
232	0x3dd77d57	0.105219536
233	0xbcf9bb59	-0.030484842
234	0xbd85e675	-0.06538097
235	0xbc29be85	-0.010360365
236	0x3dbcbc1b	0.09215566
237	0x3e5d2ece	0.21599886
238	0x3e973326	0.2953121
239	0xbd276b16	-0.04087361
240	0xbda3d6cf	-0.07999956
241	0x3e224f2f	0.15850519
242	0x3dfb23bd	0.12262676
243	0x3dfec4bf	0.1243987
244	0x3e2128de	0.15738246
245	0x3eb60d9c	0.35557258
246	0x3d1a5b95	0.037684996
247	0x3dc3c684	0.09559348
248	0x3ebca3b9	0.3684366
249	0x3ead8e26	0.33897513
250	0x3b806d88	0.003919307
251	0x3ea14205	0.3149568
252	0xbdb5fb28	-0.08885795
253	0xbd4d4b10	-0.050120413
254	0x3c295348	0.010334797
255	0x3dc69290	0.09695923

encoder.0.bias f4 [16]
0	0xbe61c785	-0.22048767
1	0xbe14e10f	-0.14538978
2	0xbdc78a76	-0.09743206
3	0xbe25044d	-0.16114922
4	0x3de078c5	0.10960535
5	0xbc349ba3	-0.011023435
6	0xbdde97f2	-0.10868825
7	0xbbe8b426	-0.0071015535
8	0x3e96d9d5	0.29463068
9	0x3ea933a5	0.33047214
10	0xbe3c9adc	-0.18418449
11	0x3eafb6c3	0.34319124
12	0xbf288e47	-0.658421
13	0x3e9e5481	0.30923846
14	0x3e12fd59	0.14354457
15	0x3e778db2	0.24175146

encoder.2.weight f4 [8, 16, 3, 3]
0	0x3d910679	0.07081313
1	0xbcafa67c	-0.02144169
2	0x3dce73cb	0.100806795
3	0xbd83b854	-0.06431642
4	0xbd2bf995	-0.041986067
5	0x3d6a4ef9	0.05720422
6	0x3d9623c8	0.073310435
7	0x3e17ecf6	0.14836487
8	0x3df19e9b	0.1179783
9	0xbc420e97	-0.011844299
10	0xbdf758b4	-0.12077466
11	0x3e29964f	0.16561244
12	0x3dcb9a19	0.09941501
13	0xbc745c2c	-0.014914554
14	0x3e0f8ed3	0.14019327
15	0x3e58555f	0.21126316
16	0x3de1d11c	0.110262126
17	0x3e42a0a3	0.1900659
18	0xbcb79d16	-0.022413772
19	0xbc3942a8	-0.011307396
20	0xbd792f0e	-0.06083589
21	0x3d76cb0a	0.060252227
22	0x3c9382ec	0.018006764
23	0xbd15b9f8	-0.036554307
24	0xbc75b9b8	-0.014997892
25	0xbcc46d06	-0.023977768
26	0x3d910c81	0.07082463
27	0xbe08f760	-0.13375616
28	0xbde4cf11	-0.11172307
29	0x3bca852b	0.0061804256
30	0xbdd5fea9	-0.10448963
31	0xbd94cc4f	-0.07265531
32	0x3e01a1e5	0.12659414
33	0x3e0f979a	0.14022675
34	0x3e043023	0.12908988
35	0x3d8cf07f	0.068818085
36	0x3e72eac9	0.23722376
37	0x3dfbf186	0.12301926
38	0x3e8dc8df	0.27692315
39	0xbd94f1d8	-0.072726905
40	0xbcccc29c	-0.02499514
41	0x3e37043e	0.17872712
42	0x3e53d452	0.20686463
43	0x3e1469c6	0.14493474
44	0x3dfcb841	0.12339831
45	0x3d836af9	0.06416888
46	0x3d90be62	0.07067563
47	0xbcc78f2e	-0.024360266
48	0xbe21a365	-0.15784986
49	0xbca57634	-0.020197965
50	0xbdfd740b	-0.12375649
51	0xbe06a0a6	-0.1314722
52	0xbda34486	-0.07972054
53	0xbe12c2cb	-0.1433212
54	0xbce87adc	-0.028378896
55	0x3d8e6b40	0.0695405
56	0x3d7f8112	0.06237895
57	0xbd93efc7	-0.07223468
58	0x3d18cd38	0.037305087
59	0x3cd28ce0	0.02570194
60	0x3cf1de2c	0.029524885
61	0x3cebbd75	0.028776864
62	0xbcf4c450	-0.029878765
63	0x3e6b63da	0.22987309
64	0xbe9d8527	-0.3076565
65	0xbddc2a4d	-0.10750256
66	0xbd23fece	-0.040037923
67	0xbf382096	-0.7192472
68	0xbeb3b0a2	-0.35095698
69	0x3d25b35d	0.040454257
70	0xbe524510	-0.20534158
71	0xbd78e41b	-0.060764413
72	0xbd466dfb	-0.04844473
73	0xbe0aee89	-0.13567556
74	0xbc6188e7	-0.01376555
75	0xbcd7a8ee	-0.02632567
76	0xbea20b8e	-0.3164944
77	0xbe2c2654	-0.16811496
78	0x3d40da33	0.04708309
79	0xbe3bfddf	-0.18358563
80	0xbdb710c5	-0.089387454
81	0x3e43ed44	0.19133478
82	0x3e3bcad5	0.18339093
83	0x3d7811d1	0.060563866
84	0x3dfcd71d	0.12345717
85	0x3e6f8196	0.23389277
86	0x3de4f717	0.11179941
87	0x3decd675	0.11564342
88	0x3db39f01	0.08770562
89	0xbb358455	-0.0027697284
90	0xbe2054e7	-0.15657388
91	0xbde0afe7	-0.10971051
92	0x3d8a28c4	0.06746057
93	0xbdc22d96	-0.09481351
94	0xbd0f9cae	-0.03506153
95	0x3cfd75ed	0.03094002
96	0x3dc33181	0.095309265
97	0x3cbdca2e	0.023167696
98	0x3d86795e	0.06566118
99	0x3c88ab53	0.016683256
100	0xbe471913	-0.19443159
101	0xbe16084e	-0.14651605
102	0xbdc56000	-0.09637451
103	0xbe976803	-0.29571542
104	0xbe560bc1	-0.20902921
105	0xbdf5e711	-0.12006963
106	0xbe81894c	-0.25300062
107	0xbe13e448	-0.14442551
108	0xbe1db716	-0.15401873
109	0xbdf9e594	-0.12201992
110	0xbd2be6c3	-0.04196812
111	0xbe61e3f4	-0.22059613
112	0xbe3fc6a1	-0.18728115
113	0xbdf88019	-0.12133808
114	0xbea51979	-0.32245997
115	0xbe901974	-0.2814442
116	0xbeb649f3	-0.35603294
117	0x3e9188a0	0.2842455
118	0x3db7e422	0.0897906
119	0x3cbb2fea	0.022849996
120	0x3e5d5561	0.216146
121	0x3dfa88e9	0.12233145
122	0x3cbd797b	0.023129215
123	0xbdeaec62	-0.11470868
124	0xbe84eeb5	-0.2596337
125	0xbe6a860f	-0.22902702
126	0xbd157f95	-0.036498625
127	0xbdd5f8f2	-0.10447873
128	0x3e5ecfef	0.21759008
129	0x3e8d1d5d	0.27561465
130	0x3e1fb939	0.15598
131	0x3e9c6fcc	0.30554044
132	0xbd13474d	-0.03595667
133	0xbd6d2ae9	-0.05790225
134	0xbc90681f	-0.017627774
135	0x3eb709cb	0.3574966
136	0x3e9a48a7	0.30133554
137	0x3e8287c5	0.2549421
138	0x3d8ebeca	0.06969984
139	0x3db4b006	0.08822636
140	0x3e155206	0.1458207
141	0x3e8d0c79	0.27548578
142	0x3e2af6eb	0.16695754
143	0x3d87587b	0.06608673
144	0x3e038710	0.12844491
145	0x3dc0c14c	0.094118685
146	0xbc9fb75c	-0.019496612
147	0x3e8b51fa	0.2721098
148	0x3ea36ed5	0.31920496
149	0x3e0b8936	0.1362656
150	0x3e610c86	0.21977434
151	0x3e488c54	0.19584781
152	0x3e11963c	0.14217466
153	0x3d8129a2	0.06306769
154	0x3e271a15	0.16318543
155	0xbd696e14	-0.056989744
156	0x3e39e48f	0.18153594
157	0x3e6087b3	0.21926765
158	0x3e31b247	0.17353164
159	0x3d84bad8	0.0648095
160	0x3e0ad5ae	0.13558075
161	0x3e2c99d7	0.1685556
162	0xbbbe5500	-0.0058084726
163	0x3d17a310	0.037020743
164	0xbc61a3f8	-0.013772003
165	0xbcd81f26	-0.02638204
166	0xbcbcdbe0	-0.023054063
167	0x3cdbb6e4	0.026820607
168	0x3cca98f4	0.024731137
169	0xbc614718	-0.01374986
170	0xbd968af4	-0.07350722
171	0x3e354806	0.17703256
172	0x3dd0e736	0.1020035
173	0xbd06e795	-0.032935698
174	0x3e29f33a	0.1659669
175	0x3e548f09	0.20757689
176	0x3deabb77	0.11461537
177	0x3e41963e	0.18904969
178	0x3e6ff122	0.23431829
179	0x3ca0304c	0.01955428
180	0xbd5e3d0e	-0.054257445
181	0xbdd86192	-0.10565485
182	0xbdaa9bd6	-0.083305046
183	0x3e059ad5	0.13047345
184	0x3e393f8b	0.18090646
185	0xbcdce06b	-0.02696248
186	0x3e2cb831	0.16867138
187	0x3da74267	0.08166962
188	0xbd1f50ae	-0.0388953
189	0x3ce35f54	0.027755417
190	0x3e713d90	0.2355864
191	0x3e1a6090	0.15075898
192	0xbdae8f40	-0.085234165
193	0xbd814bd8	-0.06313294
194	0x3c0fcc6c	0.008776765
195	0x3dc11166	0.094271466
196	0x3c318b8c	0.010836493
197	0xbd1006b1	-0.03516263
198	0xbc15eb78	-0.009150378
199	0x3d27a940	0.040932894
200	0x3d6eff8e	0.058349185
201	0xbd343887	-0.04399922
202	0xbd72259b	-0.059117895
203	0xbd84708d	-0.0646678
204	0x3d8364cd	0.064157106
205	0xbd0afb3a	-0.033930995
206	0x3c98baac	0.0186437
207	0xbeb07581	-0.34464648
208	0xbe89bdd3	-0.26902637
209	0xbe91ba75	-0.28462568
210	0xbeefbb25	-0.46822467
211	0xbe1a9fe8	-0.15100062
212	0xbd3108e2	-0.043221362
213	0xbe80fb75	-0.25191846
214	0xbd8c6420	-0.06855035
215	0x3d8e92f8	0.06961626
216	0xbe05d7f4	-0.13070661
217	0xbe9e4049	-0.3090842
218	0xbec922b2	-0.39284283
219	0xbe7ecb25	-0.24882181
220	0xbe2a5cf7	-0.16637026
221	0xbea237d6	-0.31683224
222	0xbe4f50b4	-0.2024563
223	0xbe9f1c90	-0.3107648
224	0xbeb617ba	-0.35564977
225	0xbe1a328e	-0.15058348
226	0xbe8ae339	-0.27126482
227	0xbe3e18da	-0.18564168
228	0xbdfa020c	-0.12207422
229	0xbe2a2615	-0.1661609
230	0xbe8ae190	-0.27125216
231	0xbd850892	-0.06495775
232	0xbe7f0476	-0.24904045
233	0xbe438e53	-0.19097261
234	0x3e151e37	0.14562307
235	0x3dbf39e9	0.09337217
236	0x3d3e05ba	0.04639218
237	0x3ea07d0c	0.31345403
238	0x3e901348	0.2813971
239	0x3d5f5968	0.054528624
240	0x3e09011e	0.13379332
241	0x3e465f0a	0.19372192
242	0x3d81548e	0.06314956
243	0xbe766118	-0.24060476
244	0xbe53a274	-0.2066744
245	0xbeaaff72	-0.33398014
246	0xbe911347	-0.2833502
247	0xbe5bcc7b	-0.21464722
248	0xbea76f42	-0.3270207
249	0xbecd2507	-0.40067312
250	0xbebeecc7	-0.37290022
251	0xbec6b5a3	-0.38810453
252	0x3dc800f9	0.097658105
253	0xbd399244	-0.045305505
254	0xbcd6cc25	-0.02622039
255	0x3d0c31f0	0.03422731

encoder.2.bias f4 [8]
0	0xbb5e50e2	-0.0033922722
1	0xbe0e6686	-0.13906297
2	0xbe0f1603	-0.1397324
3	0x3e42f663	0.19039302
4	0xbe9db898	-0.30804896
5	0xbe2e3940	-0.17014027
6	0xbdd2a26e	-0.10284887
7	0xbe62e7d9	-0.22158755
