Projects/temp/mistake01/model/sancho_512.png_color_image_decoder.pth (torch, 8449 bytes, 4 tensors)

decoder.0.weight f4 [8, 16, 3, 3]
00000000: 9bc7 1f3d 3d17 2f3d d745 7c3c 5934 9d3c
00000010: a349 97bd a196 9e3e f831 373d 8b02 d83e
00000020: 7e2e a5bd 16a4 b5bc 86a8 0cbd 58db 47bc
00000030: 10d0 69bd e427 8e3d ec55 9dbc 6bb0 5f3c
00000040: 5e5e 37bd 9c6d b1bd 5eac 83bc a49e 3ebe
00000050: 35ae 593d bf3c a8bd 8a0f 9dbd a343 e3bc
00000060: 638e d7bc a9e4 eebc b639 96bd c123 08be
00000070: c957 153e ae6a 8a3e feb8 483d 7959 503e
00000080: 44fc 953e 8554 ce3d 98a5 033f 4879 653e
00000090: 6f1e 173d b7a1 103e da60 0d3e 359b 1b3e
000000a0: 6078 f23d f347 853e b0aa 143e 8e0b ab3e
000000b0: 75d4 4f3e 64ce 243e da80 9d3e d132 093d
000000c0: d4ae d73e 421d f73e 5bf6 b63d 7cfd 81bc
000000d0: bc88 913e 5d06 6b3d 0788 8bbd 5111 f73b
000000e0: 34c2 383e 8325 32be 8299 27bc d4b2 5f3e
000000f0: 03d4 be3d f3f1 873e ab4a 853e bbad fe3d
00000100: 603d ab3e 49b1 c8bc 7541 8b3e 7ec8 ea3e
00000110: 8ecf 26bd 64d2 15be 1f65 17bd a991 31bd
00000120: c5ca 673e 9fdb 4e3e c678 64bd b59f e23e
00000130: 1a08 fb3e 128c b23e 4b13 e83e 2755 4e3e
00000140: ee96 ab3e e286 08be 75f9 59be 5aed 9abd
00000150: c064 b8bd c1d7 6dbe 0186 ecbd 2f8b 92bd
00000160: bffa 07be 9898 f3bd 45c3 c2bd 501f 6ebd
00000170: 3e28 973e 3c7f 91bd 2c25 cb3e 8017 4e3c
00000180: 6230 9f3d 03d5 45bd 1969 6f3e db45 bd3e
00000190: d05e 9e3e e363 553e 9110 cf3e 648a d73e
000001a0: 2981 943e f8ae 5f3e 0f67 753e 6193 6d3e
000001b0: a148 cfbd fd3e 813d 437c 403e 00ba cd3c
000001c0: d696 4d3e fb97 22bd 5c5f 223e f69e 49bd
000001d0: 33e6 853e 2dc3 fe3d a360 ed3d a5c1 d63d
000001e0: 6129 5cbd 99bb 00bd d776 043d 7b7b 013c
000001f0: aec8 27bc 0cd5 a83d 892d 55bb 9931 5a3d
00000200: 1c9c 5fbe b678 10be deaa 37bc 5bff c0be
00000210: 11ec 45be db7f 8abe 1544 bcbd 6984 3bbf
00000220: bb89 2bbf 43ec a3be 8d91 b5be 07d6 1ebf
00000230: 41c3 f1be 936f 88be 45ea ecbe 5ad3 4dbe
00000240: b426 a8bc 80b8 083e 19f9 763d 8d8b cc3e
00000250: cc54 843c fa6e 953e 4061 78bc 1815 903e
00000260: 9563 ef3c fe87 36bd abbd 81bd ebed 2abd
00000270: 8450 f53c b4e9 d73e 8033 7d3c 35d4 a53b
00000280: 3831 123c 9902 eebc f919 53bd ef06 c3bd
00000290: 6ac2 043d e8f8 c2bd d76d 123e 55a3 a1bd
000002a0: ba94 6b3d 32f7 1b3d e1a3 4fbc 02db 4e3e
000002b0: 0827 963e 912e 44bd b0d4 de3e c3b1 c63e
000002c0: 6c5c 3b3e b222 4f3e 9027 cd3e 9a12 953c
000002d0: 9745 1d3e 7b25 613e 2719 86bd 6deb 6d3e
000002e0: 00e6 b63e 0391 053e 1d45 803e cf38 bb3e
000002f0: d459 a53d d5de ccbb 74bf ff3d 357c 4d3e
00000300: 6022 4dbe 481d 5fbe 159b 923d 6270 b1bd
00000310: ba2a 40be 04c7 b83b efdd 363e d87c 0d3e
00000320: 7db5 98bc d2bd 803e 7923 833e fe17 2f3e
00000330: 619c 5c3d 5793 743e b5b8 c73c b31a 5dbc
00000340: abc1 8abb a302 7b3e ac62 14be 6cf7 2fbe
00000350: b378 993d c63d 2fbd b9c8 4fbe da27 f7bc
00000360: e33d 4dbe 0010 0f3e b436 c4bd d322 ac3d
00000370: 5213 b6bd 2da1 453e f0fa abbd a480 13bc
00000380: 6c57 d7bd d115 9c3d 1667 803d 4c19 bcbd
00000390: 7f68 95be d557 c9be 73ed c0be 16ca 86be
000003a0: 9cb5 bcbe 9a82 97bc ff54 e03e 38ac 233c
000003b0: 254a 6c3d cb0d 4cbd 3175 d33e f0c8 7cbd
000003c0: 2cba e23d 202a a4bc d50d 6abd 6d83 033d
000003d0: 0e52 753d 3def 563e 7027 40bd eaf9 24be
000003e0: 6c7c 913a 3ca6 c03a 4cbb 27be 7651 6abd
000003f0: 1eeb 123e 84c4 a8bc 9939 57bd e720 9a3d
0.039008718 0.04274677 0.0153975105 0.01919 -0.07387092 0.30974296 0.04472539 0.4218944
-0.08065508 -0.022172969 -0.034340404 -0.012198292 -0.05708319 0.06941202 -0.01920601 0.013652901
-0.04476773 -0.086634845 -0.016073402 -0.18615204 0.053144652 -0.082147114 -0.076689795 -0.027742213
-0.026313012 -0.029161768 -0.07335226 -0.13294889 0.14584269 0.27034515 0.049004547 0.20346631
0.29294026 0.100747146 0.5142455 0.22409546 0.036894258 0.1412419 0.13806477 0.15195926
0.11839366 0.26031455 0.14518237 0.33407253 0.2029589 0.16094357 0.30762368 0.033495728
0.4212557 0.4826451 0.08933707 -0.015867941 0.28424633 0.057379115 -0.068130545 0.007539906
0.18042833 -0.17397122 -0.01022947 0.21845561 0.09317782 0.2655178 0.2603353 0.1243548
0.33445263 -0.024498599 0.27198377 0.45856088 -0.040725283 -0.14631039 -0.03696167 -0.043351803
0.22635944 0.20200966 -0.05577924 0.44262472 0.49029619 0.3487249 0.4532722 0.2014967
0.33513588 -0.13332704 -0.21286567 -0.075648025 -0.090035915 -0.23226835 -0.11548997 -0.071554534
-0.13279246 -0.11894339 -0.09509901 -0.05813533 0.2952289 -0.07104346 0.39676797 0.012578845
0.077729 -0.048298847 0.23379935 0.36967358 0.3093171 0.20838885 0.40442327 0.4209777
0.2900479 0.21844089 0.23965095 0.23200752 -0.10121275 0.06310842 0.18797402 0.025113106
0.2007707 -0.03969572 0.15856689 -0.049223863 0.2615219 0.124395706 0.115906976 0.104861535
-0.0537504 -0.031428907 0.032339897 0.007902975 -0.010240717 0.082437605 -0.0032528362 0.053269956
-0.21836895 -0.14108548 -0.0112101715 -0.3769482 -0.19328333 -0.2705067 -0.09192673 -0.73248917
-0.67007035 -0.3201619 -0.3546261 -0.6204533 -0.4721928 -0.26647624 -0.46272483 -0.20100155
-0.020526268 0.13351631 0.06029615 0.3995022 0.016153716 0.2918623 -0.015159905 0.28141093
0.02922229 -0.044563286 -0.063350044 -0.041730803 0.02994562 0.4217049 0.015454173 0.0050606974
0.0089228675 -0.029053973 -0.05153844 -0.09522807 0.03241197 -0.09520131 0.14299713 -0.07892481
0.057514884 0.03807754 -0.012673349 0.20200732 0.29326653 -0.04789597 0.43521643 0.38807496
0.18296975 0.20228079 0.40069246 0.018197346 0.15358578 0.21986954 -0.06547766 0.23234339
0.3572235 0.13043599 0.2505273 0.3656678 0.08073774 -0.0062521496 0.12487689 0.20066912
-0.20032644 -0.21788514 0.07158486 -0.086640134 -0.18766299 0.005638959 0.17858098 0.13817155
-0.018641228 0.2514482 0.25613 0.17098996 0.053860072 0.2388433 0.024380067 -0.013495135
-0.004234513 0.24512725 -0.14490765 -0.17184228 0.07493725 -0.04278352 -0.20291413 -0.03017037
-0.20043139 0.13970947 -0.09580746 0.0840508 -0.08890404 0.19299765 -0.08397472 -0.009002838
-0.10514721 0.07621349 0.06269662 -0.091845125 -0.29181287 -0.39324823 -0.3768116 -0.26326054
-0.36857307 -0.018494893 0.43814847 0.009989791 0.057687897 -0.04981784 0.41300347 -0.061715066
0.11070666 -0.020039618 -0.057142098 0.03210776 0.059892707 0.209897 -0.04691261 -0.1611096
0.0011099703 0.0014697979 -0.16380042 -0.057206593 0.14347503 -0.020601518 -0.052545164 0.07525807

decoder.0.bias f4 [16]
00000000: 5349 abbd d388 56bd 56bb b43d 504c 00be
00000010: 37e9 87bd 76ff 903e f038 88bc 7d56 9b3e
00000020: 501a 973e 0a81 a43e 2f0e ecbd ce86 6d3e
00000030: 6fd3 12be 1220 303e 527f a43e 4a60 f63e
-0.08363595 -0.05237658 0.08824794 -0.12529111 -0.06636279 0.283199 -0.016628712 0.30339423
0.29512262 0.321297 -0.11526143 0.23195955 -0.14338468 0.17199734 0.32128388 0.48120338

decoder.2.weight f4 [16, 3, 3, 3]
00000000: e964 05bd abf7 b23e c518 f23d f6aa 4d3e
00000010: 0299 1c3f 47b9 b33e 2a1e f43d d310 c03e
00000020: 71e0 0d3e 9416 ed3d b07f ec3c d2f1 643e
00000030: 806c 513e 5a5d c53e 4f20 f33d b8a4 593e
00000040: 965e 2d3e e733 8a3e 04f8 0e3e 677d 2fbc
00000050: b824 8f3d 27a7 2e3e c9f7 953e 1057 373e
00000060: a305 8f3d df0f 0b3e 322e 823e d622 d23d
00000070: 5f18 4d3e e544 913e 6eef 223e 1b78 013f
00000080: e67d a73e 7dbd 293e 6c01 943e 7b72 763e
00000090: 0ab4 243e 4f9c 8f3e dd25 583e 1cfc 903e
000000a0: 015d e73e 9b34 7f3e faca 3f3e 79fb 3a3e
000000b0: c462 a03e 97e6 0e3e f1d7 ad3e 44ed b13e
000000c0: e773 113e f810 403e 631a 713e 0db1 753e
000000d0: 71b8 463e c328 333e 3b34 32be c334 043d
000000e0: 25db c1bd 64bd 1c3e 1baa 343e 72b5 b63d
000000f0: f0d7 f93c f56f 3f3e 01d4 cbbd e68d b7bb
00000100: a7cc e9bd 82c7 35be 1f5f 0f3e ea08 a83e
00000110: 929a 663d 778a 05be 9311 633e f7f6 c9bd
00000120: fa85 8cbe d5da bd3c cb4c 29bd 3d9a 343e
00000130: 5013 193f f455 dd3d 344b 5b3e 8ec5 913e
00000140: 17bc f93b d02c 613d 879d 9d3e 6dd9 563d
00000150: 1f63 db3d 18c7 d03e bd98 4c3e 1aa3 1c3e
00000160: a46e 903e 8e80 263e 5d0c bfbd 3706 a53e
00000170: c4ee 0bbc e91e 08bb 5662 9c3e 4ccb 883e
00000180: 949c 003d 9995 7c3e 3cfc 133e 6b70 afbd
00000190: 86a0 473e 6e4d 093e c0c5 aa3d 9056 833d
000001a0: eab1 843e 8de4 cc3d b21b df3d 838f 35bd
000001b0: 58db 553e 2031 573e f185 1a3e 9142 be3e
000001c0: 36af b03e 7253 993e 7f87 97bc 93b3 893e
000001d0: 6145 0e3d a555 503e a002 273d 9648 3b3e
000001e0: 0514 5f3d 0b61 423e 4994 e43c 14dd 2cbd
000001f0: 2018 413c fae2 863d 303d 04bd 4ae8 153e
00000200: 7282 af3c 29a5 f4bd 10d1 133e 9cf3 1b3d
00000210: 9b6f 5f3d d870 2dbc bc80 41be f27c d0be
00000220: b1a3 37be 9780 bdbe 6726 e9be 3b1d d9be
00000230: a7a7 9dbe 5714 6ebe 19fc 61be 2dd1 82bd
00000240: 74b1 c4bc 0f27 4dbe 2c00 52be bd8d b7be
00000250: c108 ffbe 9f5a e5be b6f3 873d 1e25 b5be
00000260: 248b 1abe e941 2cbe b213 e7be 9db6 a1be
00000270: d11a 02bf 3f8d 0dbf 618b 44be 3250 4fbd
00000280: 8515 dfbe 41de b6bd 775f 323e 4e94 563e
00000290: b5dd 4e3e 749b 393d 67c6 f93e 1588 863e
000002a0: 4b63 0d3d da55 113e 333d 713e b336 2d3d
000002b0: 2bee 483e b451 e0bd c216 823e 4e45 863e
000002c0: ae73 1a3e 9c46 003d bf40 063e 56dd 99bd
000002d0: 8043 30bb e5d8 183e ec92 9e3e d365 003e
000002e0: 84e0 d83e c964 153e 99c7 223e 3c31 203e
000002f0: 883e 1c3e 6361 4abe 1b71 c4be 2b53 b2be
00000300: f667 a2be ea2e e2be 5c7e cebe 470b c4be
00000310: a216 e9be 8a11 a6be 3693 b2be 1a12 81be
00000320: 1a82 36be 495b 57be b404 b7be 84e2 31be
00000330: cb58 a2be b173 09be d306 2fbe d90f b6be
00000340: 18b7 b3be da39 69bd b47f 73be aea0 e6be
00000350: ea1a e0bd 8e80 9dbd 15bd bfbe 5634 89be
00000360: 2cd9 d13d a6fe bd3c bc95 463e d7a3 023e
00000370: 720e e53d d4a8 213e 668e 573e 6278 143e
00000380: 7a8f 4f3e e62a 24be 2b90 abbe da8f 32be
00000390: 47ed c2be 7373 2fbf 2e75 85be 96d3 b6be
000003a0: 66bb b5be cafb 13be a2aa 57be 2460 7ebe
000003b0: 1d3d 36bc 96c6 e2be 410c 2ebf 85c0 c5be
000003c0: c883 a8be 7c84 d8be d818 0dbe e3ea 99be
000003d0: 4694 d9be 92bb 4ebe 6cc7 6abe 1454 23bf
000003e0: 8d1c bdbe 09cd 8bbd ddea 39be ad1e f8bc
000003f0: d5f9 b73d 1727 95bd d237 4bbd 0fe2 063e
-0.03256694 0.3495458 0.11821131 0.20084748 0.6117097 0.35102293 0.11919816 0.37512836
0.13855149 0.11576572 0.02886948 0.22357872 0.20451546 0.38547784 0.11871397 0.21254241
0.16930613 0.26992723 0.13961798 -0.010711051 0.069894254 0.17055951 0.29290608 0.17904305
0.06983497 0.13580273 0.2542587 0.10260551 0.20028828 0.28372875 0.15911648 0.5057389
0.3271324 0.1657619 0.28907335 0.24067108 0.16084304 0.28048941 0.21108194 0.28317344
0.45188144 0.24922411 0.18729773 0.18259992 0.31325352 0.1395515 0.33953813 0.34751332
0.1420437 0.18756473 0.23545222 0.23993321 0.19406296 0.17496018 -0.17402737 0.03227688
-0.094656266 0.15306622 0.17643015 0.08921327 0.030498475 0.18695052 -0.09952546 -0.0056016324
-0.114159875 -0.17751887 0.1400113 0.328193 0.056299753 -0.13041101 0.22174673 -0.09861558
-0.27445966 0.023175636 -0.041333 0.17636962 0.59795094 0.1080741 0.21415406 0.28471035
0.007621299 0.054974377 0.30784246 0.052453447 0.10712265 0.40776896 0.1998014 0.15296593
0.28209412 0.16259977 -0.0932853 0.32231304 -0.008540813 -0.0020770377 0.30543774 0.26717603
0.031399325 0.24666442 0.14451689 -0.08566364 0.19494829 0.13408443 0.08338499 0.06412995
0.25916988 0.1000453 0.10893954 -0.044326317 0.20884454 0.21014833 0.15090157 0.3716016
0.34508675 0.29946476 -0.018497227 0.26894817 0.034734134 0.20345171 0.040773988 0.18289408
0.05446245 0.18982331 0.02790274 -0.042203024 0.011785537 0.06586261 -0.032284915 0.14639392
0.021424506 -0.11945564 0.1443522 0.03807412 0.054549795 -0.010585986 -0.18896765 -0.40720326
-0.17933537 -0.3701217 -0.4553711 -0.42405114 -0.3079197 -0.23249947 -0.22068824 -0.06387553
-0.024010397 -0.20034431 -0.20507878 -0.35850325 -0.49811366 -0.447957 0.06638281 -0.3537988
-0.1509214 -0.16822018 -0.45132214 -0.31584635 -0.5082217 -0.5529365 -0.19193794 -0.05061359
-0.43571106 -0.0892911 0.1741923 0.20955011 0.20201762 0.045314267 0.4878418 0.26275697
0.03451852 0.14192906 0.23558502 0.042288493 0.19622104 -0.10953084 0.25407988 0.2622475
0.15083191 0.03131734 0.13110636 -0.075129196 -0.0026895702 0.14926489 0.30971467 0.12538843
0.42358792 0.14589228 0.15896453 0.15643781 0.15258229 -0.19763713 -0.38367543 -0.34829077
-0.3171994 -0.44176418 -0.4033078 -0.38289854 -0.4552508 -0.32435256 -0.34877938 -0.25209123
-0.17823067 -0.21030916 -0.35745776 -0.17371565 -0.3170837 -0.13423039 -0.17092447 -0.35558966
-0.35100627 -0.056939937 -0.23779184 -0.45044464 -0.109426335 -0.076905355 -0.37448946 -0.26797742
0.102465004 0.023192715 0.19393057 0.12757812 0.11184396 0.15787059 0.21050414 0.14499047
0.20269576 -0.1603199 -0.3350843 -0.17437688 -0.38071653 -0.68535537 -0.26065964 -0.35708302
-0.35494536 -0.14451519 -0.21061185 -0.24841362 -0.011122969 -0.44292134 -0.6798745 -0.38623443
-0.3291304 -0.42288578 -0.13779008 -0.30062017 -0.42495936 -0.2018874 -0.22927636 -0.6380017
-0.36935845 -0.06826217 -0.18156 -0.030288065 0.089831986 -0.072828464 -0.04961378 0.13172172

decoder.2.bias f4 [3]
00000000: 4e70 5abd 4a08 10be 937c 81be
-0.05332976 -0.14065662 -0.25290355
